data.pth (torch, 5463 bytes, 6 tensors)

l1.weight f4 [8, 64]
00000000: 47cd ffbd 3bda 073d 370d 18bc 1331 99be
00000010: 121a 363e d1b7 b33e 4146 0ebd b82a 81be
00000020: 12d5 9639 4473 183f c2f7 92be ff34 a23d
00000030: 0333 f2bd fb02 64bd 81a9 adbb 0029 8b3e
00000040: b96a c7bb 4126 fb3d 954a 75bd e786 343c
00000050: 4d79 cc3d 2642 4e3e 6e39 383f 442b de3e
00000060: 133d 42be b0b9 fa3e af3f 513e 49fa d23e
00000070: ca83 a33d 5573 5f3e bc93 673d 0a28 0e3d
00000080: a765 d23e dc5f 05be 6626 5f3e d5e3 b0bb
00000090: 76fc 46be c634 bc3c f590 b73c bce1 bd3e
000000a0: b9cb 223e 50dd 38be 00db 1abe ceef 81bd
000000b0: 3e8b dc3d 4789 1b3d 1f8e 3c3d 99ef 3fbd
000000c0: 4c36 a23e 1889 c7bc a228 85be 7dbd 053d
000000d0: 1141 24bf a061 a7be d650 353e 605a 54be
000000e0: ae03 883e b4b0 ce3e 6df0 103d a51e d3bc
000000f0: ac56 12be 7dca 5fbe 5fa0 e43c 3498 e8b8
00000100: 45ba 853e 1f5c a53e 705b d8bd 986a febe
00000110: 7bd2 ea3e 0748 0e3f 01ac 6c3e e85e 043e
00000120: 6f6d 353e c819 673e cd29 043d 2ee3 603e
00000130: 8fbf 37be 227c 99bd e45d 723e 0d42 df3e
00000140: d508 a83e faa4 80be 24c6 133e 139b 97bd
00000150: 69d5 903e 2322 bf3e 9da8 e03d a18a a03e
00000160: 327a 7f3e ba40 133f 36b7 b93e 93e4 ef3e
00000170: 23e3 edbd 3b7c b03e 6af6 413d f26a df3e
00000180: c814 f73d 2dfc c1bb 617f a63d 973a a53d
00000190: 3be1 2dbd 6e7d 853e 5a72 81be d0d2 893e
000001a0: 1494 4c3e 8287 aa3d 14a7 3c3e eb85 aa3e
000001b0: 0767 573e 1895 243e 1f94 613e c968 b2bd
000001c0: 42f4 373e b4bf 20be de07 6e3c 613b 433e
000001d0: 6951 1d3f a80c 773e 167e f33e ff92 f0be
000001e0: 0613 153e 70ef 823e e7d3 363e 5400 263e
000001f0: ede3 8abd 5637 873e 3dc6 323c 6896 d23e
00000200: e467 813e be92 573e b7b5 263f 45d9 6e3f
00000210: 0bdd 553e 08a3 0f3f c841 703e cd8c 5cbe
00000220: 64c0 b93e 9446 47bf 2137 aabe 81e9 91be
00000230: 9c49 e83e 68f4 fd3e f120 973e 5e45 493e
00000240: ff04 e6bd 4311 993e b334 a83e c55c cc3e
00000250: d7b5 883e 5eb0 4f3e 36ef 0fbf ca4d d33e
00000260: f99b e9bd b01b db3e 1e0f 163e 3a11 063f
00000270: 3a04 743e ecec 083d c149 ef3e acc0 e1bd
00000280: 5684 bebe e3e6 dd3e cbc6 36be 0bbb 513e
00000290: 2341 99bd b14d f83d 5898 fd3e 5024 6bbe
000002a0: 9963 95be 074b 27be f181 023e 8ca3 a13e
000002b0: e70d 11be b521 133e 0a5f dbbd 5737 8f3e
000002c0: 18a5 11bf 40d6 f53e cbd4 33bd 780f 473d
000002d0: f481 e93e 6a33 a23e c98f a03e 66a5 573f
000002e0: 2ade 6abe 97e0 a3be 7196 143f eacb 763e
000002f0: 9af5 e23e d698 1fbe 73c0 a13e 9b27 283e
00000300: 6577 4bbe 036b 253e d214 71be 8f4a e1be
00000310: 3998 9cbd 52a9 a7be 169c c9bd 8c70 a1bc
00000320: f6b1 4a3f 2052 383f 248f 52be c9d8 d33e
00000330: b543 c2bd fd3d 4d3d 2b12 023f 1e0f 9fbe
00000340: 47b2 55be 8142 16be af66 123f 5541 5abe
00000350: 97b3 4d3d d473 11be f413 ee3e 85b8 e7be
00000360: 3285 24be 289a e8be bf78 4cbe 5baf e7be
00000370: 4ca3 2a3c 8781 76be 2652 c53d 5261 fcbd
00000380: b28d e43e ca2e 2cbe 2d61 cf3e 8ff2 003f
00000390: aabe bbbc 1c55 0b3f 60c0 05be 0f03 903e
000003a0: 2d75 d83e 91a7 ecbd 46fe d03e b4a5 3a3f
000003b0: 90f7 62bd 7a1d d63e 2150 da3e d125 0d3d
000003c0: ad2d b43e adbc acbd dab0 18bd 1a39 c43e
000003d0: 0e0b 04bf e3f3 c7bd 2e87 81be 28b0 e7be
000003e0: 5baa af3e 7dfb da3e 3ed9 073f e9f8 503d
000003f0: 7326 8cbe 2736 a0bd b577 a3bd 52ac e93d
-0.124903254 0.033167105 -0.009280494 -0.29920253 0.17783383 0.35101178 -0.034734968 -0.25227904
0.0002876898 0.5955088 -0.2870465 0.079202645 -0.11826136 -0.055666905 -0.0052997475 0.27179718
-0.0060857204 0.12263156 -0.05988558 0.011018491 0.09984074 0.20142421 0.7196263 0.43392384
-0.1896861 0.48969793 0.2043445 0.41206577 0.07984121 0.2182134 0.056537375 0.034706153
0.4109318 -0.13024849 0.21791992 -0.0053982534 -0.19432244 0.022974383 0.022407988 0.37086284
0.15898027 -0.18053174 -0.15122604 -0.06344567 0.10768746 0.037972715 0.046033975 -0.046859358
0.3168205 -0.024357364 -0.26007563 0.032651413 -0.64161783 -0.3269167 0.17706618 -0.207376
0.26565307 0.4036919 0.035385538 -0.025771448 -0.14290875 -0.21854587 0.027908502 -0.00011090972
0.26118675 0.32296845 -0.10564315 -0.496907 0.4586371 0.55578655 0.2311249 0.12926829
0.17717527 0.22568429 0.032266427 0.21961662 -0.17944168 -0.074943796 0.23668629 0.4360508
0.32819238 -0.25125867 0.14431053 -0.07402625 0.2828782 0.37330732 0.109696604 0.31355765
0.24948958 0.5752064 0.3627259 0.46854076 -0.116155885 0.3446978 0.04735414 0.4363628
0.120645106 -0.0059199543 0.08129764 0.08067816 -0.042451125 0.26072258 -0.25282556 0.2691865
0.19978362 0.08326627 0.1842311 0.33305296 0.21035396 0.160725 0.2202916 -0.087113924
0.1796427 -0.15698129 0.014528243 0.1906562 0.6145235 0.24125922 0.47557133 -0.4698715
0.14558038 0.255733 0.17854272 0.16211063 -0.06781755 0.26409405 0.0109115215 0.41130376
0.25274575 0.21052071 0.65121025 0.93300277 0.20885102 0.5610814 0.23462594 -0.21538086
0.36279595 -0.7784207 -0.33245185 -0.28498462 0.4536866 0.4960053 0.2951732 0.19655368
-0.11231422 0.29895982 0.32852706 0.39914528 0.26701233 0.20282122 -0.5622438 0.41270286
-0.114067025 0.4279456 0.14654204 0.52370036 0.23829737 0.03342907 0.46735957 -0.11023077
-0.3721034 0.43340215 -0.17849271 0.20481507 -0.07483127 0.121241935 0.49530292 -0.22963071
-0.2917755 -0.16337214 0.12744881 0.3157009 -0.1416546 0.14368327 -0.10711487 0.27971908
-0.5689254 0.48015022 -0.043904107 0.048598737 0.4560696 0.3167985 0.313597 0.84236753
-0.22936311 -0.32007286 0.58042055 0.24101225 0.44328004 -0.15585646 0.3159214 0.16421358
-0.19869764 0.16154103 -0.23543099 -0.44002196 -0.07646222 -0.3274637 -0.09844224 -0.019706987
0.79177797 0.7200031 -0.20562416 0.4137633 -0.0948557 0.050107945 0.5080897 -0.3106622
-0.20868789 -0.14673807 0.5718793 -0.21313985 0.0502201 -0.14204341 0.46499598 -0.45257965
-0.16066435 -0.45430112 -0.19967936 -0.45250973 0.01041491 -0.24072848 0.09634809 -0.1232325
0.44639355 -0.16814724 0.40503827 0.50370115 -0.022918064 0.5442674 -0.13061666 0.28127334
0.42276898 -0.11555398 0.40818995 0.7290909 -0.055411875 0.41819364 0.42639259 0.034459893
0.35191098 -0.084344245 -0.037278034 0.38324815 -0.5157937 -0.097633146 -0.25298446 -0.45251584
0.34309658 0.42769995 0.5306586 0.05101863 -0.27373084 -0.07822829 -0.07981817 0.114098206

l1.bias f4 [8]
00000000: 1f39 243f 13eb 623f 7f46 473f abb4 e73e
00000010: f524 fb3e c58f 233f 5a04 0b3f 5df0 0b3f
0.6414966 0.88639945 0.77841944 0.45255026 0.49051633 0.6389125 0.54303515 0.5466364

l2.weight f4 [8, 8]
00000000: 24ae a73f 2a23 173f b808 4fbe 6a23 c63b
00000010: f348 93bf 725d 89be 6de9 933f d945 8f3f
00000020: b936 3fbd ae68 003f ddc8 5bbf 648b b73f
00000030: 8167 4e3f 77ef 6c3e 52ef ea3d 5a1e 123f
00000040: 5740 a33f 3ea7 293f 29b0 e1be 9008 aa3f
00000050: 16d2 d3be 7593 43be b8f6 043f 1ae7 d83e
00000060: aa35 05bf 77f0 053f f3ec 56be 70d3 84bf
00000070: 5035 cc3e 16c4 8f3f 1833 6a3f d0e5 223f
00000080: 1746 f63e 8867 2e3f 5b3f aa3f 8180 e93e
00000090: b6dd f5be 39ba 903f af24 90be 620f a0be
000000a0: ccb3 cbbe 9254 1c3f b171 a03f 2fed 8abf
000000b0: 2281 c83f 0cbc 40bf 3977 0bbd 6f63 59be
000000c0: 06cb 12be b55b 253f 53d1 213e d7e3 02bf
000000d0: c276 febe ff3e e43f 147f 6bbc 0360 cebd
000000e0: 7dd8 0c3e bb9f e8be 1d06 b53d 09de aebe
000000f0: c1d8 0abd bad4 533d 787c ff3d bb8e f8bd
1.3100019 0.5903803 -0.2021817 0.006046702 -1.1506637 -0.26829106 1.1555611 1.1193191
-0.046683047 0.5015973 -0.8585337 1.4339414 0.80626684 0.23138224 0.11471428 0.5707756
1.275401 0.66270816 -0.44079712 1.3283863 -0.4137122 -0.19099219 0.5193896 0.42363816
-0.5203501 0.52320045 -0.20988826 -1.0377026 0.39884424 1.1231716 0.9148421 0.63631916
0.4810035 0.68126726 1.3300585 0.45605853 -0.48020715 1.1306831 -0.28152987 -0.31261736
-0.39785612 0.61066544 1.2534696 -1.0853633 1.5664408 -0.75286937 -0.034049246 -0.21229337
-0.1433526 0.6459306 0.15802507 -0.51128906 -0.4969998 1.7831725 -0.0143735595 -0.100769065
0.13754459 -0.45434365 0.08839057 -0.34153774 -0.03389812 0.051716544 0.124749124 -0.12136599

l2.bias f4 [8]
00000000: a420 7c3e 1496 4f3e a060 2c3d e7c5 3abe
00000010: 077e 0e3f 811d 163f 2bf8 483e 8af1 1dbe
0.24621826 0.20272094 0.042084336 -0.18239556 0.5566105 0.5863877 0.19625919 -0.15424171

l3.weight f4 [7, 8]
00000000: a163 97bf 7c16 043f 2222 703e a11e b3bf
00000010: 288c 033f d6a0 85bf 4ef5 bb3e b6c0 d0bd
00000020: b468 5cbf 6b3c 0dbf 7b73 84bf 1539 c9bf
00000030: 933b c33e 3d1b 8d3f 2107 b9be bcbc b5bd
00000040: 5650 393f 3d7e 273f 7713 573f 1942 8abf
00000050: 5e72 a1be aebb b9bf 5771 92bf 8f6d 463e
00000060: c47e 1c3f b446 08bf 7ddc 20bd 85e7 a03e
00000070: 69e5 be3d 9b1b 84bf 9a00 ba3e 94c9 263e
00000080: 3983 0cbf 3f2e f1be a7b6 45bf 5190 c8be
00000090: 0b88 40bf 37f6 fabe c3e8 7abe 920a 403e
000000a0: a218 b63d 813d d53e 605f 163d 5f84 0d3f
000000b0: c99d b3bf 392b 063e 5234 77bf 63dc 24be
000000c0: 1003 aabf 50fa 953e 77f0 abbf 3355 be3e
000000d0: b43d 363e b33e 943c 17d2 143f c5e6 b33d
-1.1827279 0.5159681 0.2345052 -1.3993722 0.51385736 -1.0439708 0.3671059 -0.10193007
-0.86097264 -0.55170316 -1.0347742 -1.5720545 0.3813139 1.1023937 -0.3613825 -0.08873889
0.7238821 0.65427 0.84014076 -1.0801421 -0.31532568 -1.45104 -1.1440839 0.19377731
0.6113093 -0.53232884 -0.039272774 0.31426635 0.093211 -1.0320925 0.36328584 0.16287833
-0.5488773 -0.47105595 -0.7723183 -0.39172605 -0.75207585 -0.49015972 -0.24502854 0.18754032
0.08891417 0.41648486 0.03671205 0.5528011 -1.4032527 0.13102426 -0.9656421 -0.16099696
-1.3282185 0.29292536 -1.3432759 0.37174377 0.17796975 0.018096304 0.5813307 0.0878425

l3.bias f4 [7]
00000000: 31d4 67be 21d8 4fbd 1e9a 96be 963b 1dbe
00000010: 8a6c 04bf 9236 1fbd 3da7 fdbd
-0.22639538 -0.050743226 -0.29414457 -0.15354761 -0.5172812 -0.0388704 -0.12385414
